…
d you start setting `weights_only=True` for any use case where you don't have full control of the loaded file. Please open an issue on GitHub for any issues related to this experimental feature.
  data = torch.load(Path(root_dir).joinpath(f"{dataset_name}_test_{res}.pt").as_posix())

### MODEL ###
 FNO(
  (positional_embedding): GridEmbeddingND()
  (fno_blocks): FNOBlocks(
    (convs): ModuleList(
      (0-9): 10 x SpectralConv(
        (weight): DenseTensor(shape=torch.Size([24, 24, 16, 9]), rank=None)
      )
    )
    (fno_skips): ModuleList(
      (0-9): 10 x Flattened1dConv(
        (conv): Conv1d(24, 24, kernel_size=(1,), stride=(1,), bias=False)
      )
    )
    (channel_mlp): ModuleList(
      (0-9): 10 x ChannelMLP(
        (fcs): ModuleList(
          (0): Conv1d(24, 12, kernel_size=(1,), stride=(1,))
          (1): Conv1d(12, 24, kernel_size=(1,), stride=(1,))
        )
      )
    )
    (channel_mlp_skips): ModuleList(
      (0-9): 10 x SoftGating()
    )
  )
  (lifting): ChannelMLP(
    (fcs): ModuleList(
      (0): Conv1d(3, 48, kernel_size=(1,), stride=(1,))
      (1): Conv1d(48, 24, kernel_size=(1,), stride=(1,))
    )
  )
  (projection): ChannelMLP(
    (fcs): ModuleList(
      (0): Conv1d(24, 48, kernel_size=(1,), stride=(1,))
      (1): Conv1d(48, 1, kernel_size=(1,), stride=(1,))
    )
  )
)

### OPTIMIZER ###
 AdamW (
Parameter Group 0
    betas: (0.9, 0.999)
    correct_bias: True
    eps: 1e-06
    initial_lr: 0.005
    lr: 0.005
    weight_decay: 0.0001
)

### SCHEDULER ###
 <torch.optim.lr_scheduler.StepLR object at 0x7ff584ef6880>

### LOSSES ###

 * Train: <neuralop.losses.data_losses.H1Loss object at 0x7ff584c690a0>

 * Test: {'h1': <neuralop.losses.data_losses.H1Loss object at 0x7ff584c690a0>, 'l2': <neuralop.losses.data_losses.LpLoss object at 0x7ff584cbefa0>}
…
d you start setting `weights_only=True` for any use case where you don't have full control of the loaded file. Please open an issue on GitHub for any issues related to this experimental feature.
  data = torch.load(Path(root_dir).joinpath(f"{dataset_name}_test_{res}.pt").as_posix())

### MODEL ###
 FNO(
  (positional_embedding): GridEmbeddingND()
  (fno_blocks): FNOBlocks(
    (convs): ModuleList(
      (0-9): 10 x SpectralConv(
        (weight): DenseTensor(shape=torch.Size([24, 24, 16, 9]), rank=None)
      )
    )
    (fno_skips): ModuleList(
      (0-9): 10 x Flattened1dConv(
        (conv): Conv1d(24, 24, kernel_size=(1,), stride=(1,), bias=False)
      )
    )
    (channel_mlp): ModuleList(
      (0-9): 10 x ChannelMLP(
        (fcs): ModuleList(
          (0): Conv1d(24, 12, kernel_size=(1,), stride=(1,))
          (1): Conv1d(12, 24, kernel_size=(1,), stride=(1,))
        )
      )
    )
    (channel_mlp_skips): ModuleList(
      (0-9): 10 x SoftGating()
    )
  )
  (hc_layers): ModuleList(
    (0-9): 10 x HyperConnection(
      (layer_norm): GroupNorm(1, 24, eps=1e-05, affine=True)
      (dynamic_alpha_fn): Conv2d(24, 6, kernel_size=(1, 1), stride=(1, 1), bias=False)
      (dynamic_beta_fn): Conv2d(24, 2, kernel_size=(1, 1), stride=(1, 1), bias=False)
    )
  )
  (lifting): ChannelMLP(
    (fcs): ModuleList(
      (0): Conv1d(3, 48, kernel_size=(1,), stride=(1,))
      (1): Conv1d(48, 24, kernel_size=(1,), stride=(1,))
    )
  )
  (projection): ChannelMLP(
    (fcs): ModuleList(
      (0): Conv1d(24, 48, kernel_size=(1,), stride=(1,))
      (1): Conv1d(48, 1, kernel_size=(1,), stride=(1,))
    )
  )
)

### OPTIMIZER ###
 AdamW (
Parameter Group 0
    betas: (0.9, 0.999)
    correct_bias: True
    eps: 1e-06
    initial_lr: 0.005
    lr: 0.005
    weight_decay: 0.0001
)

### SCHEDULER ###
 <torch.optim.lr_scheduler.StepLR object at 0x7fe7e0e7d220>

### LOSSES ###

 * Train: <neuralop.losses.data_losses.H1Loss object at 0x7fe7e0e7d7c0>

 * Test: {'h1': <neuralop.losses.data_losses.H1Loss object at 0x7fe7e0e7d7c0>, 'l2': <neuralop.losses.data_losses.LpLoss object at 0x7fe7e0e7d7f0>}
…
nd you start setting `weights_only=True` for any use case where you don't have full control of the loaded file. Please open an issue on GitHub for any issues related to this experimental feature.
  data = torch.load(Path(root_dir).joinpath(f"{dataset_name}_test_{res}.pt").as_posix())

### MODEL ###
 FNO(
  (positional_embedding): GridEmbeddingND()
  (fno_blocks): FNOBlocks(
    (convs): ModuleList(
      (0-7): 8 x SpectralConv(
        (weight): DenseTensor(shape=torch.Size([64, 64, 64, 33]), rank=None)
      )
    )
    (fno_skips): ModuleList(
      (0-7): 8 x Flattened1dConv(
        (conv): Conv1d(64, 64, kernel_size=(1,), stride=(1,), bias=False)
      )
    )
    (channel_mlp): ModuleList(
      (0-7): 8 x ChannelMLP(
        (fcs): ModuleList(
          (0): Conv1d(64, 32, kernel_size=(1,), stride=(1,))
          (1): Conv1d(32, 64, kernel_size=(1,), stride=(1,))
        )
      )
    )
    (channel_mlp_skips): ModuleList(
      (0-7): 8 x SoftGating()
    )
  )
  (lifting): ChannelMLP(
    (fcs): ModuleList(
      (0): Conv1d(3, 128, kernel_size=(1,), stride=(1,))
      (1): Conv1d(128, 64, kernel_size=(1,), stride=(1,))
    )
  )
  (projection): ChannelMLP(
    (fcs): ModuleList(
      (0): Conv1d(64, 128, kernel_size=(1,), stride=(1,))
      (1): Conv1d(128, 1, kernel_size=(1,), stride=(1,))
    )
  )
)

### OPTIMIZER ###
 AdamW (
Parameter Group 0
    betas: (0.9, 0.999)
    correct_bias: True
    eps: 1e-06
    initial_lr: 0.005
    lr: 0.005
    weight_decay: 0.0001
)

### SCHEDULER ###
 <torch.optim.lr_scheduler.StepLR object at 0x7f15772f18e0>

### LOSSES ###

 * Train: <neuralop.losses.data_losses.H1Loss object at 0x7f15772c5760>

 * Test: {'h1': <neuralop.losses.data_losses.H1Loss object at 0x7f15772c5760>, 'l2': <neuralop.losses.data_losses.LpLoss object at 0x7f15772c5730>}
…
nd you start setting `weights_only=True` for any use case where you don't have full control of the loaded file. Please open an issue on GitHub for any issues related to this experimental feature.
  data = torch.load(Path(root_dir).joinpath(f"{dataset_name}_test_{res}.pt").as_posix())

### MODEL ###
 FNO(
  (positional_embedding): GridEmbeddingND()
  (fno_blocks): FNOBlocks(
    (convs): ModuleList(
      (0-7): 8 x SpectralConv(
        (weight): DenseTensor(shape=torch.Size([64, 64, 64, 33]), rank=None)
      )
    )
    (fno_skips): ModuleList(
      (0-7): 8 x Flattened1dConv(
        (conv): Conv1d(64, 64, kernel_size=(1,), stride=(1,), bias=False)
      )
    )
    (channel_mlp): ModuleList(
      (0-7): 8 x ChannelMLP(
        (fcs): ModuleList(
          (0): Conv1d(64, 32, kernel_size=(1,), stride=(1,))
          (1): Conv1d(32, 64, kernel_size=(1,), stride=(1,))
        )
      )
    )
    (channel_mlp_skips): ModuleList(
      (0-7): 8 x SoftGating()
    )
  )
  (lifting): ChannelMLP(
    (fcs): ModuleList(
      (0): Conv1d(3, 128, kernel_size=(1,), stride=(1,))
      (1): Conv1d(128, 64, kernel_size=(1,), stride=(1,))
    )
  )
  (projection): ChannelMLP(
    (fcs): ModuleList(
      (0): Conv1d(64, 256, kernel_size=(1,), stride=(1,))
      (1): Conv1d(256, 1, kernel_size=(1,), stride=(1,))
    )
  )
)

### OPTIMIZER ###
 AdamW (
Parameter Group 0
    betas: (0.9, 0.999)
    correct_bias: True
    eps: 1e-06
    initial_lr: 0.0003
    lr: 0.0003
    weight_decay: 0.0001
)

### SCHEDULER ###
 <torch.optim.lr_scheduler.StepLR object at 0x7f26fff5c4f0>

### LOSSES ###

 * Train: <neuralop.losses.data_losses.H1Loss object at 0x7f26fd9fe400>

 * Test: {'h1': <neuralop.losses.data_losses.H1Loss object at 0x7f26fd9fe400>, 'l2': <neuralop.losses.data_losses.LpLoss object at 0x7f26fd9fe3d0>}
…
nd you start setting `weights_only=True` for any use case where you don't have full control of the loaded file. Please open an issue on GitHub for any issues related to this experimental feature.
  data = torch.load(Path(root_dir).joinpath(f"{dataset_name}_test_{res}.pt").as_posix())

### MODEL ###
 FNO(
  (positional_embedding): GridEmbeddingND()
  (fno_blocks): FNOBlocks(
    (convs): ModuleList(
      (0-7): 8 x SpectralConv(
        (weight): DenseTensor(shape=torch.Size([64, 64, 64, 33]), rank=None)
      )
    )
    (fno_skips): ModuleList(
      (0-7): 8 x Flattened1dConv(
        (conv): Conv1d(64, 64, kernel_size=(1,), stride=(1,), bias=False)
      )
    )
    (channel_mlp): ModuleList(
      (0-7): 8 x ChannelMLP(
        (fcs): ModuleList(
          (0): Conv1d(64, 32, kernel_size=(1,), stride=(1,))
          (1): Conv1d(32, 64, kernel_size=(1,), stride=(1,))
        )
      )
    )
    (channel_mlp_skips): ModuleList(
      (0-7): 8 x SoftGating()
    )
  )
  (hc_layers): ModuleList(
    (0-7): 8 x HyperConnection(
      (layer_norm): GroupNorm(1, 64, eps=1e-05, affine=True)
      (dynamic_alpha_fn): Conv2d(64, 6, kernel_size=(1, 1), stride=(1, 1), bias=False)
      (dynamic_beta_fn): Conv2d(64, 2, kernel_size=(1, 1), stride=(1, 1), bias=False)
    )
  )
  (lifting): ChannelMLP(
    (fcs): ModuleList(
      (0): Conv1d(3, 128, kernel_size=(1,), stride=(1,))
      (1): Conv1d(128, 64, kernel_size=(1,), stride=(1,))
    )
  )
  (projection): ChannelMLP(
    (fcs): ModuleList(
      (0): Conv1d(64, 256, kernel_size=(1,), stride=(1,))
      (1): Conv1d(256, 1, kernel_size=(1,), stride=(1,))
    )
  )
)

### OPTIMIZER ###
 AdamW (
Parameter Group 0
    betas: (0.9, 0.999)
    correct_bias: True
    eps: 1e-06
    initial_lr: 0.0003
    lr: 0.0003
    weight_decay: 0.0001
)

### SCHEDULER ###
 <torch.optim.lr_scheduler.StepLR object at 0x7f78ac9cc820>

### LOSSES ###

 * Train: <neuralop.losses.data_losses.H1Loss object at 0x7f78ac9cc9d0>

 * Test: {'h1': <neuralop.losses.data_losses.H1Loss object at 0x7f78ac9cc9d0>, 'l2': <neuralop.losses.data_losses.LpLoss object at 0x7f78ac9cca00>}
…
nd you start setting `weights_only=True` for any use case where you don't have full control of the loaded file. Please open an issue on GitHub for any issues related to this experimental feature.
  data = torch.load(Path(root_dir).joinpath(f"{dataset_name}_test_{res}.pt").as_posix())

### MODEL ###
 FNO(
  (positional_embedding): GridEmbeddingND()
  (fno_blocks): FNOBlocks(
    (convs): ModuleList(
      (0-7): 8 x SpectralConv(
        (weight): DenseTensor(shape=torch.Size([32, 32, 32, 17]), rank=None)
      )
    )
    (fno_skips): ModuleList(
      (0-7): 8 x Flattened1dConv(
        (conv): Conv1d(32, 32, kernel_size=(1,), stride=(1,), bias=False)
      )
    )
    (channel_mlp): ModuleList(
      (0-7): 8 x ChannelMLP(
        (fcs): ModuleList(
          (0): Conv1d(32, 16, kernel_size=(1,), stride=(1,))
          (1): Conv1d(16, 32, kernel_size=(1,), stride=(1,))
        )
      )
    )
    (channel_mlp_skips): ModuleList(
      (0-7): 8 x SoftGating()
    )
  )
  (lifting): ChannelMLP(
    (fcs): ModuleList(
      (0): Conv1d(3, 64, kernel_size=(1,), stride=(1,))
      (1): Conv1d(64, 32, kernel_size=(1,), stride=(1,))
    )
  )
  (projection): ChannelMLP(
    (fcs): ModuleList(
      (0): Conv1d(32, 64, kernel_size=(1,), stride=(1,))
      (1): Conv1d(64, 1, kernel_size=(1,), stride=(1,))
    )
  )
)

### OPTIMIZER ###
 AdamW (
Parameter Group 0
    betas: (0.9, 0.999)
    correct_bias: True
    eps: 1e-06
    initial_lr: 0.005
    lr: 0.005
    weight_decay: 0.0001
)

### SCHEDULER ###
 <torch.optim.lr_scheduler.StepLR object at 0x7fe5e0f158e0>

### LOSSES ###

 * Train: <neuralop.losses.data_losses.H1Loss object at 0x7fe5e0eea760>

 * Test: {'h1': <neuralop.losses.data_losses.H1Loss object at 0x7fe5e0eea760>, 'l2': <neuralop.losses.data_losses.LpLoss object at 0x7fe5e0eea730>}
…
nd you start setting `weights_only=True` for any use case where you don't have full control of the loaded file. Please open an issue on GitHub for any issues related to this experimental feature.
  data = torch.load(Path(root_dir).joinpath(f"{dataset_name}_test_{res}.pt").as_posix())

### MODEL ###
 FNO(
  (positional_embedding): GridEmbeddingND()
  (fno_blocks): FNOBlocks(
    (convs): ModuleList(
      (0-7): 8 x SpectralConv(
        (weight): DenseTensor(shape=torch.Size([32, 32, 32, 17]), rank=None)
      )
    )
    (fno_skips): ModuleList(
      (0-7): 8 x Flattened1dConv(
        (conv): Conv1d(32, 32, kernel_size=(1,), stride=(1,), bias=False)
      )
    )
    (channel_mlp): ModuleList(
      (0-7): 8 x ChannelMLP(
        (fcs): ModuleList(
          (0): Conv1d(32, 16, kernel_size=(1,), stride=(1,))
          (1): Conv1d(16, 32, kernel_size=(1,), stride=(1,))
        )
      )
    )
    (channel_mlp_skips): ModuleList(
      (0-7): 8 x SoftGating()
    )
  )
  (hc_layers): ModuleList(
    (0-7): 8 x HyperConnection(
      (layer_norm): GroupNorm(1, 32, eps=1e-05, affine=True)
      (dynamic_alpha_fn): Conv2d(32, 6, kernel_size=(1, 1), stride=(1, 1), bias=False)
      (dynamic_beta_fn): Conv2d(32, 2, kernel_size=(1, 1), stride=(1, 1), bias=False)
    )
  )
  (lifting): ChannelMLP(
    (fcs): ModuleList(
      (0): Conv1d(3, 64, kernel_size=(1,), stride=(1,))
      (1): Conv1d(64, 32, kernel_size=(1,), stride=(1,))
    )
  )
  (projection): ChannelMLP(
    (fcs): ModuleList(
      (0): Conv1d(32, 64, kernel_size=(1,), stride=(1,))
      (1): Conv1d(64, 1, kernel_size=(1,), stride=(1,))
    )
  )
)

### OPTIMIZER ###
 AdamW (
Parameter Group 0
    betas: (0.9, 0.999)
    correct_bias: True
    eps: 1e-06
    initial_lr: 0.005
    lr: 0.005
    weight_decay: 0.0001
)

### SCHEDULER ###
 <torch.optim.lr_scheduler.StepLR object at 0x7f5b8ed887f0>

### LOSSES ###

 * Train: <neuralop.losses.data_losses.H1Loss object at 0x7f5b8ed88d90>

 * Test: {'h1': <neuralop.losses.data_losses.H1Loss object at 0x7f5b8ed88d90>, 'l2': <neuralop.losses.data_losses.LpLoss object at 0x7f5b8ed88dc0>}
…
