…
nd you start setting `weights_only=True` for any use case where you don't have full control of the loaded file. Please open an issue on GitHub for any issues related to this experimental feature.
  data = torch.load(Path(root_dir).joinpath(f"{dataset_name}_test_{res}.pt").as_posix())

### MODEL ###
 FNO(
  (positional_embedding): GridEmbeddingND()
  (fno_blocks): FNOBlocks(
    (convs): ModuleList(
      (0-7): 8 x SpectralConv(
        (weight): DenseTensor(shape=torch.Size([32, 32, 32, 17]), rank=None)
      )
    )
    (fno_skips): ModuleList(
      (0-7): 8 x Flattened1dConv(
        (conv): Conv1d(32, 32, kernel_size=(1,), stride=(1,), bias=False)
      )
    )
    (channel_mlp): ModuleList(
      (0-7): 8 x ChannelMLP(
        (fcs): ModuleList(
          (0): Conv1d(32, 16, kernel_size=(1,), stride=(1,))
          (1): Conv1d(16, 32, kernel_size=(1,), stride=(1,))
        )
      )
    )
    (channel_mlp_skips): ModuleList(
      (0-7): 8 x SoftGating()
    )
  )
  (hc_layers): ModuleList(
    (0-7): 8 x HyperConnection(
      (layer_norm): GroupNorm(1, 32, eps=1e-05, affine=True)
      (dynamic_beta_fn): Conv2d(32, 2, kernel_size=(1, 1), stride=(1, 1), bias=False)
    )
  )
  (lifting): ChannelMLP(
    (fcs): ModuleList(
      (0): Conv1d(3, 64, kernel_size=(1,), stride=(1,))
      (1): Conv1d(64, 32, kernel_size=(1,), stride=(1,))
    )
  )
  (projection): ChannelMLP(
    (fcs): ModuleList(
      (0): Conv1d(32, 64, kernel_size=(1,), stride=(1,))
      (1): Conv1d(64, 1, kernel_size=(1,), stride=(1,))
    )
  )
)

### OPTIMIZER ###
 AdamW (
Parameter Group 0
    betas: (0.9, 0.999)
    correct_bias: True
    eps: 1e-06
    initial_lr: 0.005
    lr: 0.005
    weight_decay: 0.0001

Parameter Group 1
    betas: (0.9, 0.999)
    correct_bias: True
    eps: 1e-06
    initial_lr: 0.005
    lr: 0.005
    weight_decay: 0.0
)

### SCHEDULER ###
 <torch.optim.lr_scheduler.StepLR object at 0x7fd76c9c6fd0>
…
nd you start setting `weights_only=True` for any use case where you don't have full control of the loaded file. Please open an issue on GitHub for any issues related to this experimental feature.
  data = torch.load(Path(root_dir).joinpath(f"{dataset_name}_test_{res}.pt").as_posix())

### MODEL ###
 FNO(
  (positional_embedding): GridEmbeddingND()
  (fno_blocks): FNOBlocks(
    (convs): ModuleList(
      (0-7): 8 x SpectralConv(
        (weight): DenseTensor(shape=torch.Size([32, 32, 32, 17]), rank=None)
      )
    )
    (fno_skips): ModuleList(
      (0-7): 8 x Flattened1dConv(
        (conv): Conv1d(32, 32, kernel_size=(1,), stride=(1,), bias=False)
      )
    )
    (channel_mlp): ModuleList(
      (0-7): 8 x ChannelMLP(
        (fcs): ModuleList(
          (0): Conv1d(32, 16, kernel_size=(1,), stride=(1,))
          (1): Conv1d(16, 32, kernel_size=(1,), stride=(1,))
        )
      )
    )
    (channel_mlp_skips): ModuleList(
      (0-7): 8 x SoftGating()
    )
  )
  (lifting): ChannelMLP(
    (fcs): ModuleList(
      (0): Conv1d(3, 64, kernel_size=(1,), stride=(1,))
      (1): Conv1d(64, 32, kernel_size=(1,), stride=(1,))
    )
  )
  (projection): ChannelMLP(
    (fcs): ModuleList(
      (0): Conv1d(32, 64, kernel_size=(1,), stride=(1,))
      (1): Conv1d(64, 1, kernel_size=(1,), stride=(1,))
    )
  )
)

### OPTIMIZER ###
 AdamW (
Parameter Group 0
    betas: (0.9, 0.999)
    correct_bias: True
    eps: 1e-06
    initial_lr: 0.005
    lr: 0.005
    weight_decay: 0.0
)

### SCHEDULER ###
 <torch.optim.lr_scheduler.StepLR object at 0x7fc794f08af0>

### LOSSES ###

 * Train: <neuralop.losses.data_losses.H1Loss object at 0x7fc794f08b50>

 * Test: {'h1': <neuralop.losses.data_losses.H1Loss object at 0x7fc794f08b50>, 'l2': <neuralop.losses.data_losses.LpLoss object at 0x7fc794f08b20>}
…
